…
6, patience=3, permutation=False, pred_len=24, randompermutation=False, root_path='./data/ETT/', rotation=False, scaling=False, seasonal_patterns='Monthly', seed=2, seg_len=96, seq_len=12, shapedtwwarp=False, spawner=False, target='OT', task_name='long_term_forecast', timewarp=False, top_k=5, train_epochs=10, use_amp=False, use_dtw=False, use_gpu=True, use_multi_gpu=False, use_norm=1, wdba=False, windowslice=False, windowwarp=False)
Model(
  (model): ModuleList(
    (0-1): 2 x TimesBlock(
      (conv): Sequential(
        (0): Inception_Block_V1(
          (kernels): ModuleList(
            (0): Conv2d(512, 2048, kernel_size=(1, 1), stride=(1, 1))
            (1): Conv2d(512, 2048, kernel_size=(3, 3), stride=(1, 1), padding=(1, 1))
            (2): Conv2d(512, 2048, kernel_size=(5, 5), stride=(1, 1), padding=(2, 2))
            (3): Conv2d(512, 2048, kernel_size=(7, 7), stride=(1, 1), padding=(3, 3))
            (4): Conv2d(512, 2048, kernel_size=(9, 9), stride=(1, 1), padding=(4, 4))
            (5): Conv2d(512, 2048, kernel_size=(11, 11), stride=(1, 1), padding=(5, 5))
          )
        )
        (1): GELU(approximate='none')
        (2): Inception_Block_V1(
          (kernels): ModuleList(
            (0): Conv2d(2048, 512, kernel_size=(1, 1), stride=(1, 1))
            (1): Conv2d(2048, 512, kernel_size=(3, 3), stride=(1, 1), padding=(1, 1))
            (2): Conv2d(2048, 512, kernel_size=(5, 5), stride=(1, 1), padding=(2, 2))
            (3): Conv2d(2048, 512, kernel_size=(7, 7), stride=(1, 1), padding=(3, 3))
            (4): Conv2d(2048, 512, kernel_size=(9, 9), stride=(1, 1), padding=(4, 4))
            (5): Conv2d(2048, 512, kernel_size=(11, 11), stride=(1, 1), padding=(5, 5))
          )
        )
      )
    )
  )
  (enc_embedding): DataEmbedding(
    (value_embedding): TokenEmbedding(
      (tokenConv): Conv1d(7, 512, kernel_size=(3,), stride=(1,), padding=(1,), bias=False, padding_mode=circular)
    )
    (position_embedding): PositionalEmbedding()
    (temporal_embedding): TimeFeatureEmbedding(
      (embed): Linear(in_features=4, out_features=512, bias=False)
    )
    (dropout): Dropout(p=0.1, inplace=False)
  )
  (layer_norm): LayerNorm((512,), eps=1e-05, elementwise_affine=True)
  (predict_linear): Linear(in_features=12, out_features=36, bias=True)
  (projection): Linear(in_features=512, out_features=7, bias=True)
)
模型总参数量: 1,199,619,547
