…
shapedtwwarp=False, spawner=False, target='OT', task_name='long_term_forecast', timewarp=False, top_k=5, train_epochs=10, use_amp=False, use_dtw=False, use_gpu=True, use_multi_gpu=False, use_norm=1, wdba=False, windowslice=False, windowwarp=False)
测试输入形状: [32,12,7]
输出形状: [32,24,7]
===============================================================================================
Layer (type:depth-idx)                        Output Shape              Param #
===============================================================================================
Model                                         [32, 24, 7]               --
├─DataEmbedding: 1-1                          [32, 12, 512]             --
│    └─TokenEmbedding: 2-1                    [32, 12, 512]             --
│    │    └─Conv1d: 3-1                       [32, 512, 12]             10,752
│    └─TimeFeatureEmbedding: 2-2              [32, 12, 512]             --
│    │    └─Linear: 3-2                       [32, 12, 512]             2,048
│    └─PositionalEmbedding: 2-3               [1, 12, 512]              --
│    └─Dropout: 2-4                           [32, 12, 512]             --
├─Linear: 1-2                                 [32, 512, 36]             468
├─ModuleList: 1-5                             --                        (recursive)
│    └─TimesBlock: 2-5                        [32, 36, 512]             --
│    │    └─Sequential: 3-3                   [32, 512, 6, 6]           599,800,832
│    │    └─Sequential: 3-4                   [32, 512, 18, 2]          (recursive)
│    │    └─Sequential: 3-5                   [32, 512, 4, 9]           (recursive)
│    │    └─Sequential: 3-6                   [32, 512, 9, 4]           (recursive)
│    │    └─Sequential: 3-7                   [32, 512, 1, 36]          (recursive)
├─LayerNorm: 1-4                              [32, 36, 512]             1,024
├─ModuleList: 1-5                             --                        (recursive)
│    └─TimesBlock: 2-6                        [32, 36, 512]             --
│    │    └─Sequential: 3-8                   [32, 512, 6, 6]           599,800,832
│    │    └─Sequential: 3-9                   [32, 512, 4, 9]           (recursive)
│    │    └─Sequential: 3-10                  [32, 512, 1, 36]          (recursive)
│    │    └─Sequential: 3-11                  [32, 512, 12, 3]          (recursive)
│    │    └─Sequential: 3-12                  [32, 512, 2, 18]          (recursive)
├─LayerNorm: 1-6                              [32, 36, 512]             (recursive)
├─Linear: 1-7                                 [32, 36, 7]               3,591
===============================================================================================
Total params: 1,199,619,547
Trainable params: 1,199,619,547
Non-trainable params: 0
Total mult-adds (T): 6.91
===============================================================================================
Input size (MB): 0.05
Forward/backward pass size (MB): 1432.94
Params size (MB): 4798.48
Estimated Total Size (MB): 6231.47
…
